Architechture of Resnet 18



Learning rate:  0.001
__________________________________________________________________________________________________
Layer (type)                    Output Shape         Param #     Connected to                     
==================================================================================================
input_1 (InputLayer)            (None, 32, 32, 3)    0                                            
__________________________________________________________________________________________________
conv2d_1 (Conv2D)               (None, 16, 16, 128)  18944       input_1[0][0]                    
__________________________________________________________________________________________________
batch_normalization_1 (BatchNor (None, 16, 16, 128)  512         conv2d_1[0][0]                   
__________________________________________________________________________________________________
activation_1 (Activation)       (None, 16, 16, 128)  0           batch_normalization_1[0][0]      
__________________________________________________________________________________________________
res0a_branch2a (SeparableConv2D (None, 8, 8, 128)    17664       activation_1[0][0]               
__________________________________________________________________________________________________
batch_normalization_2 (BatchNor (None, 8, 8, 128)    512         res0a_branch2a[0][0]             
__________________________________________________________________________________________________
separable_conv2d_2 (SeparableCo (None, 8, 8, 128)    16640       activation_1[0][0]               
__________________________________________________________________________________________________
activation_2 (Activation)       (None, 8, 8, 128)    0           batch_normalization_2[0][0]      
__________________________________________________________________________________________________
batch_normalization_3 (BatchNor (None, 8, 8, 128)    512         separable_conv2d_2[0][0]         
__________________________________________________________________________________________________
separable_conv2d_1 (SeparableCo (None, 8, 8, 128)    17664       activation_2[0][0]               
__________________________________________________________________________________________________
add_1 (Add)                     (None, 8, 8, 128)    0           batch_normalization_3[0][0]      
                                                                 separable_conv2d_1[0][0]         
__________________________________________________________________________________________________
batch_normalization_4 (BatchNor (None, 8, 8, 128)    512         add_1[0][0]                      
__________________________________________________________________________________________________
activation_3 (Activation)       (None, 8, 8, 128)    0           batch_normalization_4[0][0]      
__________________________________________________________________________________________________
separable_conv2d_3 (SeparableCo (None, 8, 8, 128)    17664       activation_3[0][0]               
__________________________________________________________________________________________________
batch_normalization_5 (BatchNor (None, 8, 8, 128)    512         separable_conv2d_3[0][0]         
__________________________________________________________________________________________________
activation_4 (Activation)       (None, 8, 8, 128)    0           batch_normalization_5[0][0]      
__________________________________________________________________________________________________
separable_conv2d_4 (SeparableCo (None, 8, 8, 128)    17664       activation_4[0][0]               
__________________________________________________________________________________________________
add_2 (Add)                     (None, 8, 8, 128)    0           add_1[0][0]                      
                                                                 separable_conv2d_4[0][0]         
__________________________________________________________________________________________________
batch_normalization_6 (BatchNor (None, 8, 8, 128)    512         add_2[0][0]                      
__________________________________________________________________________________________________
activation_5 (Activation)       (None, 8, 8, 128)    0           batch_normalization_6[0][0]      
__________________________________________________________________________________________________
separable_conv2d_5 (SeparableCo (None, 4, 4, 256)    34176       activation_5[0][0]               
__________________________________________________________________________________________________
batch_normalization_7 (BatchNor (None, 4, 4, 256)    1024        separable_conv2d_5[0][0]         
__________________________________________________________________________________________________
separable_conv2d_7 (SeparableCo (None, 4, 4, 256)    33152       add_2[0][0]                      
__________________________________________________________________________________________________
activation_6 (Activation)       (None, 4, 4, 256)    0           batch_normalization_7[0][0]      
__________________________________________________________________________________________________
batch_normalization_8 (BatchNor (None, 4, 4, 256)    1024        separable_conv2d_7[0][0]         
__________________________________________________________________________________________________
separable_conv2d_6 (SeparableCo (None, 4, 4, 256)    68096       activation_6[0][0]               
__________________________________________________________________________________________________
add_3 (Add)                     (None, 4, 4, 256)    0           batch_normalization_8[0][0]      
                                                                 separable_conv2d_6[0][0]         
__________________________________________________________________________________________________
batch_normalization_9 (BatchNor (None, 4, 4, 256)    1024        add_3[0][0]                      
__________________________________________________________________________________________________
activation_7 (Activation)       (None, 4, 4, 256)    0           batch_normalization_9[0][0]      
__________________________________________________________________________________________________
separable_conv2d_8 (SeparableCo (None, 4, 4, 256)    68096       activation_7[0][0]               
__________________________________________________________________________________________________
batch_normalization_10 (BatchNo (None, 4, 4, 256)    1024        separable_conv2d_8[0][0]         
__________________________________________________________________________________________________
activation_8 (Activation)       (None, 4, 4, 256)    0           batch_normalization_10[0][0]     
__________________________________________________________________________________________________
separable_conv2d_9 (SeparableCo (None, 4, 4, 256)    68096       activation_8[0][0]               
__________________________________________________________________________________________________
add_4 (Add)                     (None, 4, 4, 256)    0           add_3[0][0]                      
                                                                 separable_conv2d_9[0][0]         
__________________________________________________________________________________________________
batch_normalization_11 (BatchNo (None, 4, 4, 256)    1024        add_4[0][0]                      
__________________________________________________________________________________________________
activation_9 (Activation)       (None, 4, 4, 256)    0           batch_normalization_11[0][0]     
__________________________________________________________________________________________________
separable_conv2d_10 (SeparableC (None, 2, 2, 512)    133888      activation_9[0][0]               
__________________________________________________________________________________________________
batch_normalization_12 (BatchNo (None, 2, 2, 512)    2048        separable_conv2d_10[0][0]        
__________________________________________________________________________________________________
separable_conv2d_12 (SeparableC (None, 2, 2, 512)    131840      add_4[0][0]                      
__________________________________________________________________________________________________
activation_10 (Activation)      (None, 2, 2, 512)    0           batch_normalization_12[0][0]     
__________________________________________________________________________________________________
batch_normalization_13 (BatchNo (None, 2, 2, 512)    2048        separable_conv2d_12[0][0]        
__________________________________________________________________________________________________
separable_conv2d_11 (SeparableC (None, 2, 2, 512)    267264      activation_10[0][0]              
__________________________________________________________________________________________________
add_5 (Add)                     (None, 2, 2, 512)    0           batch_normalization_13[0][0]     
                                                                 separable_conv2d_11[0][0]        
__________________________________________________________________________________________________
batch_normalization_14 (BatchNo (None, 2, 2, 512)    2048        add_5[0][0]                      
__________________________________________________________________________________________________
activation_11 (Activation)      (None, 2, 2, 512)    0           batch_normalization_14[0][0]     
__________________________________________________________________________________________________
separable_conv2d_13 (SeparableC (None, 2, 2, 512)    267264      activation_11[0][0]              
__________________________________________________________________________________________________
batch_normalization_15 (BatchNo (None, 2, 2, 512)    2048        separable_conv2d_13[0][0]        
__________________________________________________________________________________________________
activation_12 (Activation)      (None, 2, 2, 512)    0           batch_normalization_15[0][0]     
__________________________________________________________________________________________________
separable_conv2d_14 (SeparableC (None, 2, 2, 512)    267264      activation_12[0][0]              
__________________________________________________________________________________________________
add_6 (Add)                     (None, 2, 2, 512)    0           add_5[0][0]                      
                                                                 separable_conv2d_14[0][0]        
__________________________________________________________________________________________________
batch_normalization_16 (BatchNo (None, 2, 2, 512)    2048        add_6[0][0]                      
__________________________________________________________________________________________________
activation_13 (Activation)      (None, 2, 2, 512)    0           batch_normalization_16[0][0]     
__________________________________________________________________________________________________
separable_conv2d_15 (SeparableC (None, 1, 1, 1024)   529920      activation_13[0][0]              
__________________________________________________________________________________________________
batch_normalization_17 (BatchNo (None, 1, 1, 1024)   4096        separable_conv2d_15[0][0]        
__________________________________________________________________________________________________
separable_conv2d_17 (SeparableC (None, 1, 1, 1024)   525824      add_6[0][0]                      
__________________________________________________________________________________________________
activation_14 (Activation)      (None, 1, 1, 1024)   0           batch_normalization_17[0][0]     
__________________________________________________________________________________________________
batch_normalization_18 (BatchNo (None, 1, 1, 1024)   4096        separable_conv2d_17[0][0]        
__________________________________________________________________________________________________
separable_conv2d_16 (SeparableC (None, 1, 1, 1024)   1058816     activation_14[0][0]              
__________________________________________________________________________________________________
add_7 (Add)                     (None, 1, 1, 1024)   0           batch_normalization_18[0][0]     
                                                                 separable_conv2d_16[0][0]        
__________________________________________________________________________________________________
batch_normalization_19 (BatchNo (None, 1, 1, 1024)   4096        add_7[0][0]                      
__________________________________________________________________________________________________
activation_15 (Activation)      (None, 1, 1, 1024)   0           batch_normalization_19[0][0]     
__________________________________________________________________________________________________
separable_conv2d_18 (SeparableC (None, 1, 1, 1024)   1058816     activation_15[0][0]              
__________________________________________________________________________________________________
batch_normalization_20 (BatchNo (None, 1, 1, 1024)   4096        separable_conv2d_18[0][0]        
__________________________________________________________________________________________________
activation_16 (Activation)      (None, 1, 1, 1024)   0           batch_normalization_20[0][0]     
__________________________________________________________________________________________________
separable_conv2d_19 (SeparableC (None, 1, 1, 1024)   1058816     activation_16[0][0]              
__________________________________________________________________________________________________
add_8 (Add)                     (None, 1, 1, 1024)   0           add_7[0][0]                      
                                                                 separable_conv2d_19[0][0]        
__________________________________________________________________________________________________
batch_normalization_21 (BatchNo (None, 1, 1, 1024)   4096        add_8[0][0]                      
__________________________________________________________________________________________________
activation_17 (Activation)      (None, 1, 1, 1024)   0           batch_normalization_21[0][0]     
__________________________________________________________________________________________________
global_average_pooling2d_1 (Glo (None, 1024)         0           activation_17[0][0]              
__________________________________________________________________________________________________
dense_1 (Dense)                 (None, 10)           10250       global_average_pooling2d_1[0][0] 
==================================================================================================
Total params: 5,726,730
Trainable params: 5,707,274
Non-trainable params: 19,456
__________________________________________________________________________________________________



Using real-time data augmentation.
Epoch 1/50
Learning rate:  0.001
391/390 [==============================] - 39s 100ms/step - loss: 1.6486 - acc: 0.4109 - val_loss: 1.4207 - val_acc: 0.5101
…
